Build A Machine Learning Model/Intro to Neural Networks/model20k.pth (torch, 44519 bytes, 5 tensors)

weight f4 [128, 14]
0	0x3e513c48	0.20433152
1	0x3e632720	0.22182894
2	0xbd803ab2	-0.06261195
3	0x3e7b66c2	0.24550918
4	0xbd6fda68	-0.058557898
5	0x3d5ce690	0.05393082
6	0xbe053d84	-0.13011748
7	0x3e20b992	0.1569579
8	0x3e7141b6	0.23560223
9	0xbe48c6ac	-0.19607037
10	0x3e6de0b2	0.23230246
11	0x3d4ce238	0.050020427
12	0x3e4a31a2	0.19745496
13	0x3d144190	0.036195338
14	0xbfcaa908	-1.5832834
15	0x400fdae5	2.2477353
16	0x3e5c3dad	0.21507902
17	0x3da80280	0.08203602
18	0x3fb9ff3e	1.4531019
19	0x3f4ef97d	0.8084944
20	0xbfaac078	-1.3339987
21	0x3f864e79	1.0492698
22	0x4002e9a3	2.04551
23	0x3ff21ba5	1.8914686
24	0x3fb07462	1.3785517
25	0xbfb60fab	-1.4223531
26	0xc03c0203	-2.9376228
27	0x405827ad	3.3774216
28	0xbfe009ef	-1.7503031
29	0x400a0a05	2.1568615
30	0x3e684000	0.22680664
31	0x3e0889d1	0.13333823
32	0x3feb23a1	1.8370248
33	0x3f4fa675	0.8111337
34	0xbfcba0c1	-1.5908433
35	0x3fd24b1d	1.6429173
36	0x400f15fe	2.2357173
37	0x3ff1bde1	1.8886071
38	0x400e0c6f	2.219509
39	0xbf4fde06	-0.81198156
40	0xc0556c77	-3.3347452
41	0x40594559	3.3948576
42	0x3fb69163	1.4263119
43	0x3f448e4a	0.76779616
44	0x3dc67a48	0.09691292
45	0x3eb4942d	0.352693
46	0x3fbea117	1.4892911
47	0xbe824b70	-0.2544818
48	0xbdfc5611	-0.12321103
49	0x407fe4e7	3.998346
50	0x40d65d00	6.6988525
51	0x3ed2a5e7	0.41142198
52	0xbf897f6a	-1.0742009
53	0x405cab44	3.4479532
54	0x40784f77	3.8798501
55	0x401b8bee	2.4304156
56	0xc0091cfe	-2.1423945
57	0x3fe96d9e	1.8236578
58	0x3e3aac75	0.1822985
59	0xbeabe5b2	-0.3357368
60	0x3fde60fe	1.737335
61	0x3f30579c	0.6888368
62	0xc00ee15a	-2.2325044
63	0x3fda21a4	1.7041516
64	0x402f3f2e	2.7382312
65	0x4003b4be	2.0579066
66	0x4027a8b2	2.6196713
67	0xbee1382b	-0.43988165
68	0xc05e303a	-3.4716935
69	0x40765d9b	3.8494632
70	0xbf867d83	-1.0507053
71	0x3fc9c2ff	1.5762633
72	0x3e8f8238	0.28029037
73	0xbf135cff	-0.57563776
74	0x3fbe9ed7	1.4892224
75	0x3f279122	0.6545583
76	0xbfa52a33	-1.2903503
77	0x3fb8b59a	1.443042
78	0x406e4e66	3.723535
79	0x401f70fc	2.491271
80	0xbe9f4f5d	-0.31115237
81	0xc01fc871	-2.496609
82	0xbfb6e8f2	-1.4289839
83	0x40896d4d	4.2945924
84	0x3fde6449	1.7374355
85	0x3dec0078	0.11523527
86	0x3d87ef78	0.06637472
87	0xbfa2053d	-1.2657849
88	0x3fa211a7	1.2661637
89	0xbe06a9a9	-0.13150658
90	0x3f5e4de2	0.8683759
91	0x40217336	2.522657
92	0x40d8eefc	6.779173
93	0x3fe6abd8	1.8021193
94	0xc038d0bc	-2.8877401
95	0xbde4a471	-0.11164177
96	0x40455eba	3.0839067
97	0x40062b2b	2.0963848
98	0xbdc20b7e	-0.09474848
99	0xbe84674a	-0.25860053
100	0xbe1cb9cf	-0.15305255
101	0x3d88baf4	0.066762835
102	0xbd107e44	-0.035276666
103	0xbe46a840	-0.1940012
104	0x3bcd6cc0	0.0062690675
105	0xbe3af154	-0.18256122
106	0xbe682f76	-0.22674355
107	0xbe16b3f0	-0.14717078
108	0xbe6f862c	-0.23391026
109	0xbe2e4276	-0.1701754
110	0x3e88c8c3	0.2671567
111	0x3d4ec308	0.050478965
112	0x3da8abe8	0.082359135
113	0xbe7f40bb	-0.24927036
114	0xbe33be2f	-0.17553018
115	0xbdb63060	-0.088959455
116	0x3d2b2e08	0.041791946
117	0xbe70d01b	-0.23516886
118	0xbdebd6bc	-0.11515567
119	0xbe23d747	-0.1600009
120	0x3a422800	0.0007406473
121	0xbdcbabcc	-0.09944877
122	0xbc97b768	-0.018520072
123	0xbe39735e	-0.18110415
124	0xbe3bd97c	-0.18344682
125	0xbe1fa9ac	-0.15592068
126	0xbed55769	-0.4166825
127	0x3ff1e153	1.8896888
128	0x3db5e0cd	0.08880768
129	0xbedff212	-0.43739372
130	0x3f97b05c	1.1850696
131	0xbe53d81d	-0.2068791
132	0xbe407d6a	-0.18797842
133	0x3f99dc3f	1.2020339
134	0x3fb60b8f	1.4222277
135	0xbe51cb4c	-0.20487708
136	0x3f5b0dec	0.8556812
137	0x4029e037	2.65431
138	0x408bdc58	4.3706474
139	0xbf87c077	-1.0605611
140	0xc03577ad	-2.8354294
141	0x400321ea	2.048945
142	0x3e1345e9	0.14382137
143	0xbe393700	-0.18087387
144	0x3fbcd2a7	1.4751786
145	0x3f614306	0.87992895
146	0xc0237397	-2.55393
147	0x3fc43445	1.5328451
148	0x3f3c914b	0.736592
149	0x3fbd0ba9	1.4769183
150	0x407b4ea5	3.926675
151	0xbe7acd20	-0.24492311
152	0xc0886798	-4.2626457
153	0x40305f64	2.7558222
154	0xc0217bad	-2.5231736
155	0x3fbe0394	1.4844842
156	0x3ce1d44a	0.027567048
157	0xbfa92a41	-1.321602
158	0x3fec7538	1.8473272
159	0xbe385d18	-0.18004262
160	0xbf8bf708	-1.0934763
161	0xc029893a	-2.6490006
162	0xc0914d5a	-4.5406923
163	0xbe02e5b1	-0.12782933
164	0x40451626	3.0794768
165	0x40c45e60	6.1365204
166	0x40a0d72d	5.0262666
167	0x3c278958	0.010225616
168	0x3d741000	0.05958557
169	0xbe176b10	-0.14786935
170	0xbe0a8490	-0.13527131
171	0xbc511d00	-0.012763262
172	0x3e18cf50	0.14922833
173	0xbd8bdde0	-0.06829429
174	0xbe1c2702	-0.15249255
175	0xbdbb6fbc	-0.09152171
176	0xbe4c74c2	-0.19966415
177	0x3dc33400	0.095314026
178	0x3e53d5fa	0.20687094
179	0xbe80d318	-0.25161052
180	0x3d7e3ed0	0.06207162
181	0x3e0d60e6	0.13806495
182	0x3d8bcf29	0.06826622
183	0x3fde2709	1.7355663
184	0x3daed019	0.08535785
185	0xbdc78f28	-0.09744102
186	0x3f8e9f62	1.114239
187	0xbe544191	-0.20728137
188	0x3e57a397	0.21058498
189	0x3fa7a0de	1.3095968
190	0x3fdb786d	1.7146126
191	0xbdb0ba89	-0.08629329
192	0x3f879d52	1.0594885
193	0x40497422	3.1477132
194	0x408856db	4.2606025
195	0xbf72a461	-0.9478207
196	0x3ebae29d	0.36501017
197	0x3fbb9260	1.4654045
198	0x3d9f7b43	0.07787182
199	0xbe6ebf49	-0.23315157
200	0x3f27f378	0.6560588
201	0xbe357dfc	-0.1772384
202	0x3f2b1d1d	0.668413
203	0x3fab060f	1.3361224
204	0x3fb0ed99	1.3822509
205	0xbe06a9e3	-0.13150744
206	0x3ebf57e0	0.3737173
207	0x40178786	2.3676467
208	0x40885e07	4.261478
209	0xbf4fc41b	-0.8115861
210	0x3e2e805e	0.17041156
211	0x3dfcb5e4	0.123393804
212	0xbe71e9f1	-0.23624398
213	0xbe249404	-0.16072088
214	0xbd2cc320	-0.042178273
215	0x3e845eb5	0.25853506
216	0x3d1e5b58	0.03866133
217	0xbd8dbf76	-0.06921284
218	0x3de2728c	0.11057004
219	0xbdd079d4	-0.10179487
220	0xbe312356	-0.17298636
221	0x3e47c094	0.19507056
222	0xbdf8e1a8	-0.121524155
223	0xbd5b738c	-0.05357699
224	0xbfe6270d	-1.7980667
225	0x407662dd	3.8497841
226	0x3dd07bf5	0.10179893
227	0xbf5ce73a	-0.86290324
228	0xbf02e605	-0.5113223
229	0xbf969091	-1.1762868
230	0xc0f48b77	-7.6420245
231	0x3f2c6b82	0.67351544
232	0xc1036d52	-8.21419
233	0xc0caf2a5	-6.3421197
234	0x3ffe69b4	1.9876008
235	0xbf6734dd	-0.9031504
236	0xc115407d	-9.328244
237	0xc100dbbc	-8.053646
238	0xc0c0f00c	-6.0293026
239	0x401560f4	2.3340425
240	0x3dbf2c37	0.09334605
241	0xc045ed75	-3.0926182
242	0xbf1717b4	-0.59020543
243	0xbfca38a6	-1.5798538
244	0xc0c83b30	-6.257225
245	0x3f5a76f1	0.8533774
246	0x40bd95a3	5.924516
247	0xc11ebae0	-9.920624
248	0xc0837981	-4.108582
249	0xbe5b2802	-0.2140198
250	0x40ee3518	7.443981
251	0xc15f282a	-13.947306
252	0xbd4125e8	-0.04715529
253	0xbe04a9db	-0.1295542
254	0xbda7751a	-0.08176632
255	0xbe8244d9	-0.25443152

bias f4 [128]
0	0xbe789888	-0.24276936
1	0xbf154f4d	-0.5832413
2	0xbf3c9818	-0.73669577
3	0x3df2eccd	0.118615724
4	0xbe03032e	-0.12794182
5	0xbec897f9	-0.39178446
6	0xbeadb6bb	-0.33928475
7	0xbd6d5fb8	-0.057952613
8	0xbe19deea	-0.15026441
9	0xc023d455	-2.5598347
10	0xbec59f4a	-0.3859809
11	0xbff83753	-1.9391884
12	0xbce60340	-0.028077722
13	0xbfeb9065	-1.8403441
14	0xbfdf8f36	-1.746558
15	0x3d42bca0	0.047543168
16	0xc054a5ec	-3.322627
17	0xc0ff3d94	-7.976267
18	0x3c51cd00	0.012805223
19	0xbe502245	-0.20325573
20	0xbe00535e	-0.12531802
21	0x3e703962	0.2345939
22	0xbf42a299	-0.76029354
23	0x3e83d183	0.25745782
24	0xbd3fcbdc	-0.046825275
25	0xbebf38a2	-0.37347895
26	0xc11c3875	-9.763783
27	0xbf8ed502	-1.1158755
28	0xbfc8469c	-1.5646548
29	0x3e0f9f94	0.14025718
30	0x3d880fd0	0.06643641
31	0x3da186f8	0.07887071
32	0xc0840cff	-4.1265864
33	0xbf1e4e6f	-0.6183843
34	0x3e295726	0.1653715
35	0xc1347001	-11.277345
36	0xbdc094aa	-0.094033554
37	0xc011197f	-2.2671812
38	0xbf9bd896	-1.2175472
39	0xbf9bf58d	-1.2184311
40	0x3fa3ddd9	1.2802078
41	0xbe271c39	-0.1631936
42	0xc11a879d	-9.658109
43	0xbc0b3f20	-0.008498937
44	0xbc1426e0	-0.009042472
45	0xbff59780	-1.9186859
46	0x3fe6ee3d	1.8041455
47	0xbe0b9feb	-0.13635223
48	0xbdbc819c	-0.092044085
49	0x3e397376	0.18110451
50	0x3e1a907c	0.15094179
51	0xbfb5ab9b	-1.4192995
52	0xbfaa38c8	-1.3298578
53	0x3d4b1468	0.049580008
54	0x3e0feca0	0.14055109
55	0x3d82bd1c	0.06383726
56	0xbf10ae3c	-0.5651586
57	0x3e78cb10	0.24296212
58	0xbfa230f5	-1.267119
59	0xc00facbc	-2.2449179
60	0x3e1a06c4	0.15041643
61	0xbf820949	-1.0159084
62	0x3d9430e0	0.07235885
63	0xc006e464	-2.1076899
64	0xbe3a8b10	-0.1821711
65	0xbf315ac1	-0.69279104
66	0xbe8391f9	-0.25697306
67	0x3e2bd274	0.167795
68	0xbeb660fd	-0.3562087
69	0xc00a6e92	-2.1629987
70	0xbf6673b4	-0.900203
71	0x3e79b472	0.2438524
72	0xc088739e	-4.2641134
73	0xbeb38e1b	-0.35069355
74	0x40935fca	4.605443
75	0x3ccba910	0.024860889
76	0x3e76405a	0.24047986
77	0x3e77d67e	0.24202916
78	0xbfe8b33a	-1.8179696
79	0x3e583d96	0.21117243
80	0xbfe9e66b	-1.8273443
81	0x3d325f58	0.043547958
82	0xbe709054	-0.23492557
83	0x3d4c78b0	0.049919784
84	0xbfabf1e2	-1.3433192
85	0x3dcc2b20	0.09969163
86	0xbfe7b728	-1.810277
87	0x3bc4bf00	0.0060042143
88	0xbf793042	-0.9733926
89	0xbe25e6be	-0.16201302
90	0x3e4a48ac	0.19754285
91	0xbefcb34e	-0.4935555
92	0xbf0e3fb5	-0.5556596
93	0xbda31912	-0.07963766
94	0xbd3c80ec	-0.046021387
95	0xbfb11b9e	-1.3836553
96	0x3e3c3470	0.18379378
97	0xbdec48e6	-0.11537342
98	0xbfbe27a3	-1.4855846
99	0x3e3cb294	0.18427497
100	0xbe7a4aa5	-0.24442537
101	0x3ad5eb00	0.0016320646
102	0xbfa518a8	-1.289815
103	0xbe174b40	-0.147748
104	0xbf515c83	-0.81781787
105	0x3f2d1f87	0.6762623
106	0xbfae0707	-1.3595895
107	0xbefa8ee7	-0.4893715
108	0xbe58d228	-0.21173918
109	0xbf0f7a84	-0.5604632
110	0xc01e3586	-2.4720168
111	0x3c955880	0.018230677
112	0x3f8cf455	1.1012064
113	0xc009740a	-2.1477075
114	0xbe60b602	-0.2194443
115	0x3cf282a0	0.029603302
116	0xbef42f11	-0.4769216
117	0x405ea129	3.4785864
118	0xc0efff43	-7.49991
119	0xc017d0b4	-2.3721132
120	0x3f2f9294	0.68583035
121	0xbc532793	-0.012887853
122	0xbf8aa2d2	-1.0830939
123	0x3d4764c8	0.048680097
124	0x3d161108	0.036637336
125	0xbd483484	-0.048878208
126	0xc00d1b2e	-2.204784
127	0xbfa69d5e	-1.3016775

weight f4 [64, 128]
0	0xbd5bc959	-0.053658817
1	0xbd874ec0	-0.06606817
2	0xbc86c460	-0.01645106
3	0xbcb8c9c0	-0.02255714
4	0x3d6002a2	0.05469001
5	0xbba2a000	-0.004962921
6	0x3ce73c98	0.028227136
7	0xbd167295	-0.036730368
8	0x3d92d76d	0.071699955
9	0x3d989a4b	0.07451304
10	0xbda21d84	-0.07915786
11	0xbcba166c	-0.02271577
12	0xbd99982d	-0.07499728
13	0x3d19cdc2	0.03754974
14	0xbd9e274f	-0.07722341
15	0xbd2b2d19	-0.041791055
16	0x3db4de99	0.0883152
17	0xbdacdbdd	-0.08440373
18	0x3d858e8f	0.065213315
19	0x3bf4ad70	0.0074669644
20	0x3d90bfd5	0.07067839
21	0xbd37bb13	-0.044856142
22	0x3d6dcc1e	0.05805599
23	0x3c2eb9b0	0.010664389
24	0x3bdec320	0.006798163
25	0x3d771a62	0.060327895
26	0xbdac1055	-0.084015526
27	0xbd91cd60	-0.0711925
28	0x3daed265	0.08536223
29	0xbd596729	-0.053076897
30	0xbd827aea	-0.063711
31	0xbb8d9d30	-0.0043217167
32	0xbce7c768	-0.028293326
33	0xbc461ff0	-0.012092575
34	0xbd728f88	-0.059218913
35	0x3d02a160	0.03189218
36	0xbd9bc389	-0.07605655
37	0x3bea94a0	0.0071588308
38	0x3d53438e	0.051578097
39	0x3c8b1f10	0.016982585
40	0x3c406a88	0.011744149
41	0x3c53d020	0.012928039
42	0xbcd41e6c	-0.025893413
43	0xbc89ef78	-0.01683782
44	0xbd18ab57	-0.037272777
45	0xbd749144	-0.05970885
46	0xbd3faf00	-0.046797752
47	0x3db2f2d5	0.08737723
48	0xbc725ba8	-0.01479236
49	0x3cfda434	0.030962087
50	0x3d7a5e8a	0.061125316
51	0xbbe240e0	-0.0069047064
52	0xbd42c476	-0.04755064
53	0xbd754b9a	-0.059886552
54	0xbd056052	-0.03256256
55	0x3d01398c	0.03154902
56	0xbd98726d	-0.074437
57	0xbc30d0a8	-0.010791935
58	0x3d09b6f4	0.033621743
59	0x3d93af81	0.07211209
60	0x3cd9e5a0	0.026598752
61	0x3c8f32c8	0.01748027
62	0x3d77d92a	0.06050984
63	0x3d274b2e	0.04084318
64	0x3cf4f71c	0.029902987
65	0xbce07f68	-0.027404502
66	0xbd9128c1	-0.07087851
67	0xbc9c66f8	-0.019092068
68	0xbc835248	-0.016030446
69	0x3bd4b260	0.0064909905
70	0xbc1f44b8	-0.009720974
71	0x3d125e3a	0.035734393
72	0x3d7097c2	0.058738478
73	0xbd12c720	-0.03583443
74	0xbdabc31a	-0.08386822
75	0xbd39bf57	-0.04534849
76	0xbd2d3a1a	-0.042291738
77	0x3d4d37d2	0.050102063
78	0xbd6987de	-0.05701434
79	0xbc083590	-0.008313552
80	0xbc9975d4	-0.018732943
81	0xbd5bbba3	-0.05364574
82	0x3d241b4e	0.040065102
83	0xbd16cf28	-0.036818653
84	0xbb95d520	-0.0045725256
85	0xbd7e8b3a	-0.062144496
86	0xbc120f80	-0.008914828
87	0x3c4dc320	0.012558728
88	0xbb6bb7c0	-0.0035967678
89	0xbd074661	-0.033026103
90	0x3cd71c8c	0.02625873
91	0xbcbb9b50	-0.022901207
92	0xbd48b6be	-0.0490024
93	0xbd857d54	-0.06518045
94	0xbc996188	-0.018723264
95	0xbdab014c	-0.08349857
96	0x3d963fe9	0.07336409
97	0xbd2cf4b7	-0.042225566
98	0xbd160911	-0.03662974
99	0x3c05ddb8	0.008170538
100	0x3cbbb474	0.022913195
101	0xbc088cc8	-0.008334346
102	0x3d785de6	0.060636424
103	0xbd530ce1	-0.051525954
104	0x3d01bf6a	0.031676687
105	0xb9510800	-0.00019934773
106	0xbd934106	-0.071901366
107	0xbd0c373a	-0.034232356
108	0x3cb844b4	0.022493698
109	0x3c8a543c	0.01688587
110	0x3d83a025	0.064270295
111	0x3d72338a	0.059131183
112	0xbd4576d2	-0.04820902
113	0xbd1a99e7	-0.03774443
114	0xbc9988cc	-0.018741988
115	0xbd81af9c	-0.06332323
116	0xbcc37e58	-0.023863956
117	0xbd942165	-0.07232932
118	0x3d09b2d4	0.03361781
119	0x3d8014f9	0.06254
120	0x3be551c0	0.0069982708
121	0xbd819696	-0.0632755
122	0xbd89165f	-0.0669372
123	0xbd0cf0fc	-0.034409508
124	0x3cd299b0	0.02570805
125	0x3b0d4b20	0.002155967
126	0x3c83a734	0.01607094
127	0x3daa9b7b	0.08330437
128	0x3d28255e	0.04105126
129	0xbaaa7c8c	-0.0013007089
130	0xbd1c0a84	-0.038095966
131	0x3caff8cc	0.02148094
132	0x3c479373	0.012181151
133	0xbdcc7ae5	-0.09984378
134	0xbd944ffd	-0.07241819
135	0x3b426f00	0.0029668212
136	0x3d095f70	0.033538282
137	0x3cbb5f82	0.02287269
138	0xbd94f1d7	-0.0727269
139	0xbddcbb18	-0.10777873
140	0xbb96df90	-0.0046042874
141	0xbcf7350b	-0.03017666
142	0x3bab30d2	0.0052243257
143	0xbcc7203c	-0.024307363
144	0x3d4273a0	0.04747355
145	0xbc68df45	-0.014213388
146	0x3d843055	0.06454531
147	0xbd7c17bc	-0.061546072
148	0x3d10d418	0.03535852
149	0x3c2c8e78	0.010532014
150	0xbd84150b	-0.06449326
151	0x3d337ada	0.043818332
152	0xbdb22065	-0.08697585
153	0x3d5249ea	0.05134002
154	0xbc526b04	-0.012842897
155	0xbc410bdb	-0.011782612
156	0x3ca77b8e	0.020444658
157	0x3bf06df0	0.0073373243
158	0x3d1b303e	0.037887804
159	0x3d66558a	0.05623392
160	0xbdb7964b	-0.08964213
161	0x3d1c2256	0.038118683
162	0xbc58d850	-0.013235167
163	0xbd261b61	-0.040553454
164	0x3c91be50	0.017790943
165	0x3d526720	0.05136788
166	0xbd8b9779	-0.068160005
167	0xbda3928f	-0.07986938
168	0x3d0a6b33	0.03379364
169	0xbd2a09b7	-0.04151317
170	0x3c0a5214	0.0084424205
171	0xbc5559d8	-0.013021909
172	0x3cc74df0	0.024329156
173	0x3d40d117	0.047074404
174	0xbd84965a	-0.0647399
175	0xbd2faf27	-0.042891648
176	0x3d319faa	0.04336516
177	0x3b9e9480	0.00483948
178	0xbc1f6198	-0.009727858
179	0xbdc8c444	-0.0980306
180	0x3d5f8315	0.05456837
181	0xbb5b5f20	-0.0033473447
182	0xbc855dac	-0.016280018
183	0xbd149cfc	-0.036282524
184	0xbd1a0d2f	-0.03761023
185	0x3c9cc0b0	0.01913485
186	0xbcb73f0a	-0.022368927
187	0x3d635dc8	0.05550936
188	0xbba737b0	-0.005103074
189	0xbd066929	-0.032815132
190	0x3d1de776	0.038550816
191	0xbcb755b1	-0.022379728
192	0xbcc1b7b3	-0.023647165
193	0x3c1882ce	0.00930853
194	0x3d8ec1e9	0.06970579
195	0x3cb4b170	0.022057265
196	0x3d29cc52	0.04145462
197	0x3d167791	0.03673512
198	0x3ba1d674	0.004938895
199	0x3cfbc0e0	0.030731618
200	0x3c07d222	0.008289846
201	0xbc370f01	-0.011173011
202	0x3d5d0bf1	0.053966466
203	0x3da71b35	0.08159486
204	0x3d00e1b4	0.031465247
205	0xbb90a330	-0.0044139847
206	0x3d721d4a	0.059109963
207	0xbd8ce41d	-0.06879447
208	0x3d49915e	0.0492109
209	0x3d3fd13e	0.04683041
210	0x3d687a66	0.056757353
211	0xbbde8a30	-0.0067913756
212	0xbdb0a03b	-0.086243115
213	0x3d2f319a	0.042771913
214	0xbd70a4e6	-0.05875101
215	0x3cbe838c	0.023256086
216	0x3cf3dd6c	0.029768668
217	0xbda92ace	-0.082601175
218	0x3bc035e0	0.0058657974
219	0xbd53bf20	-0.051695943
220	0x3d2ddd4b	0.04244737
221	0xbd6682b3	-0.05627699
222	0x3d5bd1a6	0.053666733
223	0x3d0ea419	0.034824464
224	0x3d47bdfa	0.04876516
225	0x3dadc7e1	0.084853895
226	0xbbe5562e	-0.006998799
227	0xbda41290	-0.08011353
228	0x3d81392d	0.063097335
229	0x3c0492e8	0.008091666
230	0xbc970206	-0.018433582
231	0xbdac6fe4	-0.08419779
232	0xbd248a65	-0.040171046
233	0xbd6da4a9	-0.05801836
234	0x3d878f0e	0.066190824
235	0x3d2ea7a0	0.04264033
236	0x3d3c8971	0.04602951
237	0x3d23cfeb	0.039993208
238	0xbd994292	-0.074834004
239	0xbd1b7c0e	-0.037960105
240	0xbd62a9be	-0.05533766
241	0xbd68d2f3	-0.0568418
242	0x3d8ce949	0.06880433
243	0x3cf60478	0.030031428
244	0x3d4ebac4	0.050471082
245	0xbccacf5c	-0.02475708
246	0xbdca7ee7	-0.09887486
247	0xbd3d5935	-0.046227653
248	0x3d2bfbed	0.041988302
249	0x3d0d29b3	0.034463596
250	0x3be6ae74	0.0070398394
251	0xbcd46456	-0.02592675
252	0xbda8f54d	-0.082499124
253	0xbd428875	-0.047493417
254	0x3cd5ce27	0.026099278
255	0xbd647b97	-0.055781927

bias f4 [64]
0	0xbda0ec74	-0.078576
1	0x3d8742e3	0.066045545
2	0x3d3401ee	0.043947153
3	0xbd8d39e6	-0.06895809
4	0x3d6abc9a	0.05730877
5	0x4002c0b5	2.043012
6	0x3fc9d4a3	1.5768017
7	0x4009ee3e	2.1551661
8	0xba981600	-0.0011603236
9	0x3d009fa4	0.031402245
10	0x3fcc6155	1.5967203
11	0xbd7797ed	-0.060447622
12	0xbc5200a0	-0.012817532
13	0x40e35c4c	7.1050167
14	0x3d64f640	0.055898905
15	0x3fa8e373	1.3194412
16	0x3bbf695a	0.0058414163
17	0xbdc17348	-0.09445816
18	0xbcf690c9	-0.030098336
19	0x3d574cce	0.05256348
20	0x40093dae	2.1443896
21	0x4005ee91	2.092686
22	0xbda66cae	-0.08126198
23	0xc0235ff8	-2.5527325
24	0x4009f161	2.1553576
25	0xbc656095	-0.014000078
26	0x3f89bfec	1.0761695
27	0x3ff6be6e	1.9276865
28	0xbc69be3a	-0.014266545
29	0x3caf1a04	0.02137471
30	0xb89039a7	-6.877194e-05
31	0xbd79a3e6	-0.06094732
32	0xbd3a0319	-0.04541311
33	0xbd9d545b	-0.07682105
34	0x3d389539	0.045064185
35	0x3fca62de	1.5811422
36	0x3da2f591	0.07956994
37	0xbd53eaaa	-0.051737465
38	0x3ca044f8	0.019564137
39	0x3d7ecd56	0.062207542
40	0xbd93e967	-0.07222252
41	0xbdb70714	-0.08936897
42	0x3c50d6c8	0.01274652
43	0xbd961378	-0.07327932
44	0x3cdcbda3	0.026945895
45	0x3d0fee46	0.035139345
46	0x3d8327df	0.06404089
47	0xbd27b58b	-0.040944617
48	0x4002cb1c	2.0436468
49	0x3fc61bda	1.547725
50	0xbd974416	-0.07386033
51	0x3fdc5f7d	1.7216641
52	0xbc9b00bc	-0.018921249
53	0xbc444bbc	-0.011980947
54	0xbc99a310	-0.018754512
55	0xbd8f25a2	-0.069896
56	0x4002a31f	2.0412061
57	0xbcfae3f4	-0.030626275
58	0xbd2fb61a	-0.042898275
59	0x3f8facdb	1.1224626
60	0x400ca665	2.197656
61	0x400a4752	2.160603
62	0x3d81b8bb	0.06334063
63	0xbd65e8fe	-0.0561304

weight f4 [1, 64]
0	0x3d26bc64	0.040707007
1	0xbc947987	-0.018124355
2	0xbcb20d56	-0.021734875
3	0x3d712c58	0.05888018
4	0xbd00cd68	-0.03144589
5	0x3f0f6777	0.5601725
6	0x3f3ebe67	0.7450928
7	0x3f20efde	0.6286601
8	0x3fc71c81	1.5555574
9	0xbdea70b9	-0.114472814
10	0xc11a52c0	-9.645203
11	0xbda7276b	-0.08161815
12	0xbc8be6c0	-0.017077804
13	0xc10bf080	-8.746216
14	0xbda839a2	-0.082141176
15	0x3f79473a	0.9737431
16	0xbda18224	-0.078861505
17	0xbd2203c4	-0.039554372
18	0xbd8fe5c0	-0.07026243
19	0x3d79eab8	0.06101486
20	0x3f13f773	0.5779945
21	0x3f113dc4	0.5673487
22	0xbd795adf	-0.060877677
23	0x40dc3aea	6.8821917
24	0x3f1552ed	0.5832966
25	0xbccf5cd0	-0.025312811
26	0x3f9f011c	1.2422214
27	0x3f1ff787	0.6248707
28	0xbd94037e	-0.072272286
29	0xbd05b9bc	-0.032647833
30	0xbdab3e8d	-0.0836154
31	0x3d1a7bf4	0.037715867
32	0x3dcdc235	0.10046808
33	0xbdef7a5b	-0.11693259
34	0xbd1053de	-0.035236232
35	0x3f30aefc	0.69017005
36	0x3dccfd56	0.100092575
37	0xbd48ff3e	-0.049071543
38	0xbbf08ee0	-0.007341251
39	0x3c98f152	0.018669758
40	0xbd438c89	-0.047741447
41	0xbd4ed20a	-0.050493278
42	0xbd08fdd8	-0.03344521
43	0xbcf080f4	-0.029358365
44	0xbc975d9b	-0.018477252
45	0x3c43cd90	0.011950865
46	0xbc2b35d0	-0.010449842
47	0xbcee4361	-0.029084863
48	0x3f1e5eb1	0.6186324
49	0x3f5efcbb	0.87104386
50	0xbbb5ac57	-0.005544226
51	0xc0c3b0a0	-6.1153107
52	0xbdf9817a	-0.12182899
53	0xbda8fc01	-0.08251191
54	0xbbba8dc0	-0.0056931674
55	0xbb193cbe	-0.0023382152
56	0x3f1f9b8f	0.6234674
57	0xbd5f0d21	-0.05445588
58	0xbcd41770	-0.025890082
59	0x3f9045ce	1.1271303
60	0x3f21cb29	0.6320062
61	0x3f0d45d1	0.55184656
62	0xbda86596	-0.08222501
63	0xbc2a9310	-0.010411039
